…
W0121 16:29:04.136096  2723 upgrade_proto.cpp:72] Note that future Caffe releases will only support input layers and not input fields.
I0121 16:29:04.136333  2723 net.cpp:58] Initializing net from parameters: 
name: "CaffeNet"
state {
  phase: TRAIN
  level: 0
}
layer {
  name: "input"
  type: "Input"
  top: "target"
  top: "image"
  top: "bbox"
  input_param {
    shape {
      dim: 1
      dim: 3
      dim: 227
      dim: 227
    }
    shape {
      dim: 1
      dim: 3
      dim: 227
      dim: 227
    }
    shape {
      dim: 1
      dim: 4
      dim: 1
      dim: 1
    }
  }
}
layer {
  name: "conv1"
  type: "Convolution"
  bottom: "target"
  top: "conv1"
  param {
    lr_mult: 0
    decay_mult: 1
  }
  param {
    lr_mult: 0
    decay_mult: 0
  }
  convolution_param {
    num_output: 96
    kernel_size: 11
    stride: 4
    weight_filler {
      type: "gaussian"
      std: 0.01
    }
    bias_filler {
      type: "constant"
      value: 0
    }
  }
}
layer {
  name: "relu1"
  type: "ReLU"
  bottom: "conv1"
  top: "conv1"
}
layer {
  name: "pool1"
  type: "Pooling"
  bottom: "conv1"
  top: "pool1"
  pooling_param {
    pool: MAX
    kernel_size: 3
    stride: 2
  }
}
layer {
  name: "norm1"
  type: "LRN"
  bottom: "pool1"
  top: "norm1"
  lrn_param {
    local_size: 5
    alpha: 0.0001
    beta: 0.75
  }
}
layer {
  name: "conv2"
  type: "Convolution"
  bottom: "norm1"
  top: "conv2"
  param {
    lr_mult: 0
    decay_mult: 1
  }
  param {
    lr_mult: 0
    decay_mult: 0
  }
  convolution_param {
    num_output: 256
    pad: 2
    kernel_size: 5
    group: 2
    weight_filler {
      type: "gaussian"
      std: 0.01
    }
    bias_filler {
      type: "constant"
      value: 1
    }
  }
}
layer {
  name: "relu2"
  type: "ReLU"
  bottom: "conv2"
  top: "conv2"
}
layer {
  name: "pool2"
  type: "Pooling"
  bottom: "conv2"
  top: "pool2"
  pooling_param {
    pool: MAX
    kernel_size: 3
    stride: 2
  }
}
layer {
  name: "norm2"
  type: "LRN"
  bottom: "pool2"
  top: "norm2"
  lrn_param {
    local_size: 5
    alpha: 0.0001
    beta: 0.75
  }
}
layer {
  name: "conv3"
  type: "Convolution"
  bottom: "norm2"
  top: "conv3"
  param {
    lr_mult: 0
    decay_mult: 1
  }
  param {
    lr_mult: 0
    decay_mult: 0
  }
  convolution_param {
    num_output: 384
    pad: 1
    kernel_size: 3
    weight_filler {
      type: "gaussian"
      std: 0.01
    }
    bias_filler {
      type: "constant"
      value: 0
    }
  }
}
layer {
  name: "relu3"
  type: "ReLU"
  bottom: "conv3"
  top: "conv3"
}
layer {
  name: "conv4"
  type: "Convolution"
  bottom: "conv3"
  top: "conv4"
  param {
    lr_mult: 0
    decay_mult: 1
  }
  param {
    lr_mult: 0
    decay_mult: 0
  }
  convolution_param {
    num_output: 384
    pad: 1
    kernel_size: 3
    group: 2
    weight_filler {
      type: "gaussian"
      std: 0.01
    }
    bias_filler {
      type: "constant"
      value: 1
    }
  }
}
layer {
  name: "relu4"
  type: "ReLU"
  bottom: "conv4"
  top: "conv4"
}
layer {
  name: "conv5"
  type: "Convolution"
  bottom: "conv4"
  top: "conv5"
  param {
    lr_mult: 0
    decay_mult: 1
  }
  param {
    lr_mult: 0
    decay_mult: 0
  }
  convolution_param {
    num_output: 256
    pad: 1
    kernel_size: 3
    group: 2
    weight_filler {
      type: "gaussian"
      std: 0.01
    }
    bias_filler {
      type: "constant"
      value: 1
    }
  }
}
layer {
  name: "relu5"
  type: "ReLU"
  bottom: "conv5"
  top: "conv5"
}
layer {
  name: "pool5"
  type: "Pooling"
  bottom: "conv5"
  top: "pool5"
  pooling_param {
    pool: MAX
    kernel_size: 3
    stride: 2
  }
}
layer {
  name: "conv1_p"
  type: "Convolution"
  bottom: "image"
  top: "conv1_p"
  param {
    lr_mult: 0
    decay_mult: 1
  }
  param {
    lr_mult: 0
    decay_mult: 0
  }
  convolution_param {
    num_output: 96
    kernel_size: 11
    stride: 4
    weight_filler {
      type: "gaussian"
      std: 0.01
    }
    bias_filler {
      type: "constant"
      value: 0
    }
  }
}
layer {
  name: "relu1_p"
  type: "ReLU"
  bottom: "conv1_p"
  top: "conv1_p"
}
layer {
  name: "pool1_p"
  type: "Pooling"
  bottom: "conv1_p"
  top: "pool1_p"
  pooling_param {
    pool: MAX
    kernel_size: 3
    stride: 2
  }
}
layer {
  name: "norm1_p"
  type: "LRN"
  bottom: "pool1_p"
  top: "norm1_p"
  lrn_param {
    local_size: 5
    alpha: 0.0001
    beta: 0.75
  }
}
layer {
  name: "conv2_p"
  type: "Convolution"
  bottom: "norm1_p"
  top: "conv2_p"
  param {
    lr_mult: 0
    decay_mult: 1
  }
  param {
    lr_mult: 0
    decay_mult: 0
  }
  convolution_param {
    num_output: 256
    pad: 2
    kernel_size: 5
    group: 2
    weight_filler {
      type: "gaussian"
      std: 0.01
    }
    bias_filler {
      type: "constant"
      value: 1
    }
  }
}
layer {
  name: "relu2_p"
  type: "ReLU"
  bottom: "conv2_p"
  top: "conv2_p"
}
layer {
  name: "pool2_p"
  type: "Pooling"
  bottom: "conv2_p"
  top: "pool2_p"
  pooling_param {
    pool: MAX
    kernel_size: 3
    stride: 2
  }
}
layer {
  name: "norm2_p"
  type: "LRN"
  bottom: "pool2_p"
  top: "norm2_p"
  lrn_param {
    local_size: 5
    alpha: 0.0001
    beta: 0.75
  }
}
layer {
  name: "conv3_p"
  type: "Convolution"
  bottom: "norm2_p"
  top: "conv3_p"
  param {
    lr_mult: 0
    decay_mult: 1
  }
  param {
    lr_mult: 0
    decay_mult: 0
  }
  convolution_param {
    num_output: 384
    pad: 1
    kernel_size: 3
    weight_filler {
      type: "gaussian"
      std: 0.01
    }
    bias_filler {
      type: "constant"
      value: 0
    }
  }
}
layer {
  name: "relu3_p"
  type: "ReLU"
  bottom: "conv3_p"
  top: "conv3_p"
}
layer {
  name: "conv4_p"
  type: "Convolution"
  bottom: "conv3_p"
  top: "conv4_p"
  param {
    lr_mult: 0
    decay_mult: 1
  }
  param {
    lr_mult: 0
    decay_mult: 0
  }
  convolution_param {
    num_output: 384
    pad: 1
    kernel_size: 3
    group: 2
    weight_filler {
      type: "gaussian"
      std: 0.01
    }
    bias_filler {
      type: "constant"
      value: 1
    }
  }
}
layer {
  name: "relu4_p"
  type: "ReLU"
  bottom: "conv4_p"
  top: "conv4_p"
}
layer {
  name: "conv5_p"
  type: "Convolution"
  bottom: "conv4_p"
  top: "conv5_p"
  param {
    lr_mult: 0
    decay_mult: 1
  }
  param {
    lr_mult: 0
    decay_mult: 0
  }
  convolution_param {
    num_output: 256
    pad: 1
    kernel_size: 3
    group: 2
    weight_filler {
      type: "gaussian"
      std: 0.01
    }
    bias_filler {
      type: "constant"
      value: 1
    }
  }
}
layer {
  name: "relu5_p"
  type: "ReLU"
  bottom: "conv5_p"
  top: "conv5_p"
}
layer {
  name: "pool5_p"
  type: "Pooling"
  bottom: "conv5_p"
  top: "pool5_p"
  pooling_param {
    pool: MAX
    kernel_size: 3
    stride: 2
  }
}
layer {
  name: "concat"
  type: "Concat"
  bottom: "pool5"
  bottom: "pool5_p"
  top: "pool5_concat"
  concat_param {
    axis: 1
  }
}
layer {
  name: "fc6-new"
  type: "InnerProduct"
  bottom: "pool5_concat"
  top: "fc6"
  param {
    lr_mult: 10
    decay_mult: 1
  }
  param {
    lr_mult: 20
    decay_mult: 0
  }
  inner_product_param {
    num_output: 4096
    weight_filler {
      type: "gaussian"
      std: 0.005
    }
    bias_filler {
      type: "constant"
      value: 1
    }
  }
}
layer {
  name: "relu6"
  type: "ReLU"
  bottom: "fc6"
  top: "fc6"
}
layer {
  name: "drop6"
  type: "Dropout"
  bottom: "fc6"
  top: "fc6"
  dropout_param {
    dropout_ratio: 0.5
  }
}
layer {
  name: "fc7-new"
  type: "InnerProduct"
  bottom: "fc6"
  top: "fc7"
  param {
    lr_mult: 10
    decay_mult: 1
  }
  param {
    lr_mult: 20
    decay_mult: 0
  }
  inner_product_param {
    num_output: 4096
    weight_filler {
      type: "gaussian"
      std: 0.005
    }
    bias_filler {
      type: "constant"
      value: 1
    }
  }
}
layer {
  name: "relu7"
  type: "ReLU"
  bottom: "fc7"
  top: "fc7"
}
layer {
  name: "drop7"
  type: "Dropout"
  bottom: "fc7"
  top: "fc7"
  dropout_param {
    dropout_ratio: 0.5
  }
}
layer {
  name: "fc7-newb"
  type: "InnerProduct"
  bottom: "fc7"
  top: "fc7b"
  param {
    lr_mult: 10
    decay_mult: 1
  }
  param {
    lr_mult: 20
    decay_mult: 0
  }
  inner_product_param {
    num_output: 4096
    weight_filler {
      type: "gaussian"
      std: 0.005
    }
    bias_filler {
      type: "constant"
      value: 1
    }
  }
}
layer {
  name: "relu7b"
  type: "ReLU"
  bottom: "fc7b"
  top: "fc7b"
}
layer {
  name: "drop7b"
  type: "Dropout"
  bottom: "fc7b"
  top: "fc7b"
  dropout_param {
    dropout_ratio: 0.5
  }
}
layer {
  name: "fc8-shapes"
  type: "InnerProduct"
  bottom: "fc7b"
  top: "fc8"
  param {
    lr_mult: 10
    decay_mult: 1
  }
  param {
    lr_mult: 20
    decay_mult: 0
  }
  inner_product_param {
    num_output: 4
    weight_filler {
      type: "gaussian"
      std: 0.01
    }
    bias_filler {
      type: "constant"
      value: 0
    }
  }
}
layer {
  name: "neg"
  type: "Power"
  bottom: "bbox"
  top: "bbox_neg"
  power_param {
    power: 1
    scale: -1
    shift: 0
  }
}
layer {
  name: "flatten"
  type: "Flatten"
  bottom: "bbox_neg"
  top: "bbox_neg_flat"
}
layer {
  name: "subtract"
  type: "Eltwise"
  bottom: "fc8"
  bottom: "bbox_neg_flat"
  top: "out_diff"
}
layer {
  name: "abssum"
  type: "Reduction"
  bottom: "out_diff"
  top: "loss"
  loss_weight: 1
  reduction_param {
    operation: ASUM
  }
}
I0121 16:29:04.136832  2723 layer_factory.hpp:77] Creating layer input
I0121 16:29:04.136858  2723 net.cpp:100] Creating Layer input
I0121 16:29:04.136868  2723 net.cpp:408] input -> target
I0121 16:29:04.136920  2723 net.cpp:408] input -> image
I0121 16:29:04.136929  2723 net.cpp:408] input -> bbox
I0121 16:29:04.159870  2723 net.cpp:150] Setting up input
I0121 16:29:04.159895  2723 net.cpp:157] Top shape: 1 3 227 227 (154587)
I0121 16:29:04.159919  2723 net.cpp:157] Top shape: 1 3 227 227 (154587)
I0121 16:29:04.159922  2723 net.cpp:157] Top shape: 1 4 1 1 (4)
I0121 16:29:04.159926  2723 net.cpp:165] Memory required for data: 1236712
I0121 16:29:04.159934  2723 layer_factory.hpp:77] Creating layer conv1
I0121 16:29:04.159955  2723 net.cpp:100] Creating Layer conv1
I0121 16:29:04.159962  2723 net.cpp:434] conv1 <- target
I0121 16:29:04.159974  2723 net.cpp:408] conv1 -> conv1
I0121 16:29:05.918988  2723 net.cpp:150] Setting up conv1
I0121 16:29:05.919028  2723 net.cpp:157] Top shape: 1 96 55 55 (290400)
I0121 16:29:05.919037  2723 net.cpp:165] Memory required for data: 2398312
I0121 16:29:05.919077  2723 layer_factory.hpp:77] Creating layer relu1
I0121 16:29:05.919093  2723 net.cpp:100] Creating Layer relu1
I0121 16:29:05.919100  2723 net.cpp:434] relu1 <- conv1
I0121 16:29:05.919106  2723 net.cpp:395] relu1 -> conv1 (in-place)
I0121 16:29:05.920475  2723 net.cpp:150] Setting up relu1
I0121 16:29:05.920490  2723 net.cpp:157] Top shape: 1 96 55 55 (290400)
I0121 16:29:05.920497  2723 net.cpp:165] Memory required for data: 3559912
I0121 16:29:05.920502  2723 layer_factory.hpp:77] Creating layer pool1
I0121 16:29:05.920512  2723 net.cpp:100] Creating Layer pool1
I0121 16:29:05.920517  2723 net.cpp:434] pool1 <- conv1
I0121 16:29:05.920524  2723 net.cpp:408] pool1 -> pool1
I0121 16:29:05.920583  2723 net.cpp:150] Setting up pool1
I0121 16:29:05.920588  2723 net.cpp:157] Top shape: 1 96 27 27 (69984)
I0121 16:29:05.920593  2723 net.cpp:165] Memory required for data: 3839848
I0121 16:29:05.920598  2723 layer_factory.hpp:77] Creating layer norm1
I0121 16:29:05.920614  2723 net.cpp:100] Creating Layer norm1
I0121 16:29:05.920617  2723 net.cpp:434] norm1 <- pool1
I0121 16:29:05.920622  2723 net.cpp:408] norm1 -> norm1
I0121 16:29:05.922020  2723 net.cpp:150] Setting up norm1
I0121 16:29:05.922034  2723 net.cpp:157] Top shape: 1 96 27 27 (69984)
I0121 16:29:05.922040  2723 net.cpp:165] Memory required for data: 4119784
I0121 16:29:05.922045  2723 layer_factory.hpp:77] Creating layer conv2
I0121 16:29:05.922065  2723 net.cpp:100] Creating Layer conv2
I0121 16:29:05.922068  2723 net.cpp:434] conv2 <- norm1
I0121 16:29:05.922084  2723 net.cpp:408] conv2 -> conv2
I0121 16:29:05.932652  2723 net.cpp:150] Setting up conv2
I0121 16:29:05.932668  2723 net.cpp:157] Top shape: 1 256 27 27 (186624)
I0121 16:29:05.932677  2723 net.cpp:165] Memory required for data: 4866280
I0121 16:29:05.932709  2723 layer_factory.hpp:77] Creating layer relu2
I0121 16:29:05.932718  2723 net.cpp:100] Creating Layer relu2
I0121 16:29:05.932721  2723 net.cpp:434] relu2 <- conv2
I0121 16:29:05.932726  2723 net.cpp:395] relu2 -> conv2 (in-place)
I0121 16:29:05.933532  2723 net.cpp:150] Setting up relu2
I0121 16:29:05.933547  2723 net.cpp:157] Top shape: 1 256 27 27 (186624)
I0121 16:29:05.933552  2723 net.cpp:165] Memory required for data: 5612776
I0121 16:29:05.933558  2723 layer_factory.hpp:77] Creating layer pool2
I0121 16:29:05.933568  2723 net.cpp:100] Creating Layer pool2
I0121 16:29:05.933573  2723 net.cpp:434] pool2 <- conv2
I0121 16:29:05.933579  2723 net.cpp:408] pool2 -> pool2
I0121 16:29:05.933625  2723 net.cpp:150] Setting up pool2
I0121 16:29:05.933629  2723 net.cpp:157] Top shape: 1 256 13 13 (43264)
I0121 16:29:05.933634  2723 net.cpp:165] Memory required for data: 5785832
I0121 16:29:05.933637  2723 layer_factory.hpp:77] Creating layer norm2
I0121 16:29:05.933646  2723 net.cpp:100] Creating Layer norm2
I0121 16:29:05.933650  2723 net.cpp:434] norm2 <- pool2
I0121 16:29:05.933655  2723 net.cpp:408] norm2 -> norm2
I0121 16:29:05.934401  2723 net.cpp:150] Setting up norm2
I0121 16:29:05.934414  2723 net.cpp:157] Top shape: 1 256 13 13 (43264)
I0121 16:29:05.934420  2723 net.cpp:165] Memory required for data: 5958888
I0121 16:29:05.934424  2723 layer_factory.hpp:77] Creating layer conv3
I0121 16:29:05.934438  2723 net.cpp:100] Creating Layer conv3
I0121 16:29:05.934442  2723 net.cpp:434] conv3 <- norm2
I0121 16:29:05.934448  2723 net.cpp:408] conv3 -> conv3
I0121 16:29:05.948058  2723 net.cpp:150] Setting up conv3
I0121 16:29:05.948074  2723 net.cpp:157] Top shape: 1 384 13 13 (64896)
I0121 16:29:05.948081  2723 net.cpp:165] Memory required for data: 6218472
I0121 16:29:05.948092  2723 layer_factory.hpp:77] Creating layer relu3
I0121 16:29:05.948099  2723 net.cpp:100] Creating Layer relu3
I0121 16:29:05.948103  2723 net.cpp:434] relu3 <- conv3
I0121 16:29:05.948109  2723 net.cpp:395] relu3 -> conv3 (in-place)
I0121 16:29:05.948570  2723 net.cpp:150] Setting up relu3
I0121 16:29:05.948580  2723 net.cpp:157] Top shape: 1 384 13 13 (64896)
I0121 16:29:05.948585  2723 net.cpp:165] Memory required for data: 6478056
I0121 16:29:05.948591  2723 layer_factory.hpp:77] Creating layer conv4
I0121 16:29:05.948606  2723 net.cpp:100] Creating Layer conv4
I0121 16:29:05.948611  2723 net.cpp:434] conv4 <- conv3
I0121 16:29:05.948617  2723 net.cpp:408] conv4 -> conv4
I0121 16:29:05.963850  2723 net.cpp:150] Setting up conv4
I0121 16:29:05.963865  2723 net.cpp:157] Top shape: 1 384 13 13 (64896)
I0121 16:29:05.963872  2723 net.cpp:165] Memory required for data: 6737640
I0121 16:29:05.963881  2723 layer_factory.hpp:77] Creating layer relu4
I0121 16:29:05.963889  2723 net.cpp:100] Creating Layer relu4
I0121 16:29:05.963893  2723 net.cpp:434] relu4 <- conv4
I0121 16:29:05.963898  2723 net.cpp:395] relu4 -> conv4 (in-place)
I0121 16:29:05.964690  2723 net.cpp:150] Setting up relu4
I0121 16:29:05.964704  2723 net.cpp:157] Top shape: 1 384 13 13 (64896)
I0121 16:29:05.964709  2723 net.cpp:165] Memory required for data: 6997224
I0121 16:29:05.964713  2723 layer_factory.hpp:77] Creating layer conv5
I0121 16:29:05.964732  2723 net.cpp:100] Creating Layer conv5
I0121 16:29:05.964736  2723 net.cpp:434] conv5 <- conv4
I0121 16:29:05.964745  2723 net.cpp:408] conv5 -> conv5
I0121 16:29:05.977838  2723 net.cpp:150] Setting up conv5
I0121 16:29:05.977851  2723 net.cpp:157] Top shape: 1 256 13 13 (43264)
I0121 16:29:05.977859  2723 net.cpp:165] Memory required for data: 7170280
I0121 16:29:05.977869  2723 layer_factory.hpp:77] Creating layer relu5
I0121 16:29:05.977876  2723 net.cpp:100] Creating Layer relu5
I0121 16:29:05.977880  2723 net.cpp:434] relu5 <- conv5
I0121 16:29:05.977885  2723 net.cpp:395] relu5 -> conv5 (in-place)
I0121 16:29:05.978754  2723 net.cpp:150] Setting up relu5
I0121 16:29:05.978766  2723 net.cpp:157] Top shape: 1 256 13 13 (43264)
I0121 16:29:05.978772  2723 net.cpp:165] Memory required for data: 7343336
I0121 16:29:05.978796  2723 layer_factory.hpp:77] Creating layer pool5
I0121 16:29:05.978808  2723 net.cpp:100] Creating Layer pool5
I0121 16:29:05.978812  2723 net.cpp:434] pool5 <- conv5
I0121 16:29:05.978818  2723 net.cpp:408] pool5 -> pool5
I0121 16:29:05.978861  2723 net.cpp:150] Setting up pool5
I0121 16:29:05.978865  2723 net.cpp:157] Top shape: 1 256 6 6 (9216)
I0121 16:29:05.978870  2723 net.cpp:165] Memory required for data: 7380200
I0121 16:29:05.978873  2723 layer_factory.hpp:77] Creating layer conv1_p
I0121 16:29:05.978889  2723 net.cpp:100] Creating Layer conv1_p
I0121 16:29:05.978893  2723 net.cpp:434] conv1_p <- image
I0121 16:29:05.978899  2723 net.cpp:408] conv1_p -> conv1_p
I0121 16:29:05.981801  2723 net.cpp:150] Setting up conv1_p
I0121 16:29:05.981814  2723 net.cpp:157] Top shape: 1 96 55 55 (290400)
I0121 16:29:05.981820  2723 net.cpp:165] Memory required for data: 8541800
I0121 16:29:05.981828  2723 layer_factory.hpp:77] Creating layer relu1_p
I0121 16:29:05.981837  2723 net.cpp:100] Creating Layer relu1_p
I0121 16:29:05.981840  2723 net.cpp:434] relu1_p <- conv1_p
I0121 16:29:05.981848  2723 net.cpp:395] relu1_p -> conv1_p (in-place)
I0121 16:29:05.982667  2723 net.cpp:150] Setting up relu1_p
I0121 16:29:05.982681  2723 net.cpp:157] Top shape: 1 96 55 55 (290400)
I0121 16:29:05.982686  2723 net.cpp:165] Memory required for data: 9703400
I0121 16:29:05.982690  2723 layer_factory.hpp:77] Creating layer pool1_p
I0121 16:29:05.982699  2723 net.cpp:100] Creating Layer pool1_p
I0121 16:29:05.982703  2723 net.cpp:434] pool1_p <- conv1_p
I0121 16:29:05.982709  2723 net.cpp:408] pool1_p -> pool1_p
I0121 16:29:05.982750  2723 net.cpp:150] Setting up pool1_p
I0121 16:29:05.982754  2723 net.cpp:157] Top shape: 1 96 27 27 (69984)
I0121 16:29:05.982758  2723 net.cpp:165] Memory required for data: 9983336
I0121 16:29:05.982761  2723 layer_factory.hpp:77] Creating layer norm1_p
I0121 16:29:05.982771  2723 net.cpp:100] Creating Layer norm1_p
I0121 16:29:05.982775  2723 net.cpp:434] norm1_p <- pool1_p
I0121 16:29:05.982779  2723 net.cpp:408] norm1_p -> norm1_p
I0121 16:29:05.983606  2723 net.cpp:150] Setting up norm1_p
I0121 16:29:05.983619  2723 net.cpp:157] Top shape: 1 96 27 27 (69984)
I0121 16:29:05.983625  2723 net.cpp:165] Memory required for data: 10263272
I0121 16:29:05.983629  2723 layer_factory.hpp:77] Creating layer conv2_p
I0121 16:29:05.983642  2723 net.cpp:100] Creating Layer conv2_p
I0121 16:29:05.983646  2723 net.cpp:434] conv2_p <- norm1_p
I0121 16:29:05.983654  2723 net.cpp:408] conv2_p -> conv2_p
I0121 16:29:05.994657  2723 net.cpp:150] Setting up conv2_p
I0121 16:29:05.994673  2723 net.cpp:157] Top shape: 1 256 27 27 (186624)
I0121 16:29:05.994678  2723 net.cpp:165] Memory required for data: 11009768
I0121 16:29:05.994688  2723 layer_factory.hpp:77] Creating layer relu2_p
I0121 16:29:05.994694  2723 net.cpp:100] Creating Layer relu2_p
I0121 16:29:05.994699  2723 net.cpp:434] relu2_p <- conv2_p
I0121 16:29:05.994704  2723 net.cpp:395] relu2_p -> conv2_p (in-place)
I0121 16:29:05.995512  2723 net.cpp:150] Setting up relu2_p
I0121 16:29:05.995524  2723 net.cpp:157] Top shape: 1 256 27 27 (186624)
I0121 16:29:05.995530  2723 net.cpp:165] Memory required for data: 11756264
I0121 16:29:05.995534  2723 layer_factory.hpp:77] Creating layer pool2_p
I0121 16:29:05.995546  2723 net.cpp:100] Creating Layer pool2_p
I0121 16:29:05.995550  2723 net.cpp:434] pool2_p <- conv2_p
I0121 16:29:05.995556  2723 net.cpp:408] pool2_p -> pool2_p
I0121 16:29:05.995599  2723 net.cpp:150] Setting up pool2_p
I0121 16:29:05.995602  2723 net.cpp:157] Top shape: 1 256 13 13 (43264)
I0121 16:29:05.995606  2723 net.cpp:165] Memory required for data: 11929320
I0121 16:29:05.995610  2723 layer_factory.hpp:77] Creating layer norm2_p
I0121 16:29:05.995618  2723 net.cpp:100] Creating Layer norm2_p
I0121 16:29:05.995621  2723 net.cpp:434] norm2_p <- pool2_p
I0121 16:29:05.995666  2723 net.cpp:408] norm2_p -> norm2_p
I0121 16:29:05.996488  2723 net.cpp:150] Setting up norm2_p
I0121 16:29:05.996515  2723 net.cpp:157] Top shape: 1 256 13 13 (43264)
I0121 16:29:05.996521  2723 net.cpp:165] Memory required for data: 12102376
I0121 16:29:05.996526  2723 layer_factory.hpp:77] Creating layer conv3_p
I0121 16:29:05.996542  2723 net.cpp:100] Creating Layer conv3_p
I0121 16:29:05.996546  2723 net.cpp:434] conv3_p <- norm2_p
I0121 16:29:05.996553  2723 net.cpp:408] conv3_p -> conv3_p
I0121 16:29:06.009994  2723 net.cpp:150] Setting up conv3_p
I0121 16:29:06.010008  2723 net.cpp:157] Top shape: 1 384 13 13 (64896)
I0121 16:29:06.010015  2723 net.cpp:165] Memory required for data: 12361960
I0121 16:29:06.010023  2723 layer_factory.hpp:77] Creating layer relu3_p
I0121 16:29:06.010030  2723 net.cpp:100] Creating Layer relu3_p
I0121 16:29:06.010033  2723 net.cpp:434] relu3_p <- conv3_p
I0121 16:29:06.010040  2723 net.cpp:395] relu3_p -> conv3_p (in-place)
I0121 16:29:06.010835  2723 net.cpp:150] Setting up relu3_p
I0121 16:29:06.010848  2723 net.cpp:157] Top shape: 1 384 13 13 (64896)
I0121 16:29:06.010854  2723 net.cpp:165] Memory required for data: 12621544
I0121 16:29:06.010859  2723 layer_factory.hpp:77] Creating layer conv4_p
I0121 16:29:06.010886  2723 net.cpp:100] Creating Layer conv4_p
I0121 16:29:06.010890  2723 net.cpp:434] conv4_p <- conv3_p
I0121 16:29:06.010897  2723 net.cpp:408] conv4_p -> conv4_p
I0121 16:29:06.026563  2723 net.cpp:150] Setting up conv4_p
I0121 16:29:06.026578  2723 net.cpp:157] Top shape: 1 384 13 13 (64896)
I0121 16:29:06.026585  2723 net.cpp:165] Memory required for data: 12881128
I0121 16:29:06.026600  2723 layer_factory.hpp:77] Creating layer relu4_p
I0121 16:29:06.026607  2723 net.cpp:100] Creating Layer relu4_p
I0121 16:29:06.026612  2723 net.cpp:434] relu4_p <- conv4_p
I0121 16:29:06.026618  2723 net.cpp:395] relu4_p -> conv4_p (in-place)
I0121 16:29:06.027407  2723 net.cpp:150] Setting up relu4_p
I0121 16:29:06.027420  2723 net.cpp:157] Top shape: 1 384 13 13 (64896)
I0121 16:29:06.027426  2723 net.cpp:165] Memory required for data: 13140712
I0121 16:29:06.027431  2723 layer_factory.hpp:77] Creating layer conv5_p
I0121 16:29:06.027446  2723 net.cpp:100] Creating Layer conv5_p
I0121 16:29:06.027451  2723 net.cpp:434] conv5_p <- conv4_p
I0121 16:29:06.027457  2723 net.cpp:408] conv5_p -> conv5_p
I0121 16:29:06.043412  2723 net.cpp:150] Setting up conv5_p
I0121 16:29:06.043427  2723 net.cpp:157] Top shape: 1 256 13 13 (43264)
I0121 16:29:06.043435  2723 net.cpp:165] Memory required for data: 13313768
I0121 16:29:06.043445  2723 layer_factory.hpp:77] Creating layer relu5_p
I0121 16:29:06.043452  2723 net.cpp:100] Creating Layer relu5_p
I0121 16:29:06.043457  2723 net.cpp:434] relu5_p <- conv5_p
I0121 16:29:06.043462  2723 net.cpp:395] relu5_p -> conv5_p (in-place)
I0121 16:29:06.043918  2723 net.cpp:150] Setting up relu5_p
I0121 16:29:06.043928  2723 net.cpp:157] Top shape: 1 256 13 13 (43264)
I0121 16:29:06.043934  2723 net.cpp:165] Memory required for data: 13486824
I0121 16:29:06.043938  2723 layer_factory.hpp:77] Creating layer pool5_p
I0121 16:29:06.043946  2723 net.cpp:100] Creating Layer pool5_p
I0121 16:29:06.043951  2723 net.cpp:434] pool5_p <- conv5_p
I0121 16:29:06.043956  2723 net.cpp:408] pool5_p -> pool5_p
I0121 16:29:06.043996  2723 net.cpp:150] Setting up pool5_p
I0121 16:29:06.044000  2723 net.cpp:157] Top shape: 1 256 6 6 (9216)
I0121 16:29:06.044005  2723 net.cpp:165] Memory required for data: 13523688
I0121 16:29:06.044010  2723 layer_factory.hpp:77] Creating layer concat
I0121 16:29:06.044023  2723 net.cpp:100] Creating Layer concat
I0121 16:29:06.044026  2723 net.cpp:434] concat <- pool5
I0121 16:29:06.044030  2723 net.cpp:434] concat <- pool5_p
I0121 16:29:06.044035  2723 net.cpp:408] concat -> pool5_concat
I0121 16:29:06.044064  2723 net.cpp:150] Setting up concat
I0121 16:29:06.044068  2723 net.cpp:157] Top shape: 1 512 6 6 (18432)
I0121 16:29:06.044072  2723 net.cpp:165] Memory required for data: 13597416
I0121 16:29:06.044117  2723 layer_factory.hpp:77] Creating layer fc6-new
I0121 16:29:06.044135  2723 net.cpp:100] Creating Layer fc6-new
I0121 16:29:06.044140  2723 net.cpp:434] fc6-new <- pool5_concat
I0121 16:29:06.044158  2723 net.cpp:408] fc6-new -> fc6
I0121 16:29:06.954304  2723 net.cpp:150] Setting up fc6-new
I0121 16:29:06.954339  2723 net.cpp:157] Top shape: 1 4096 (4096)
I0121 16:29:06.954346  2723 net.cpp:165] Memory required for data: 13613800
I0121 16:29:06.954358  2723 layer_factory.hpp:77] Creating layer relu6
I0121 16:29:06.954368  2723 net.cpp:100] Creating Layer relu6
I0121 16:29:06.954375  2723 net.cpp:434] relu6 <- fc6
I0121 16:29:06.954382  2723 net.cpp:395] relu6 -> fc6 (in-place)
I0121 16:29:06.956876  2723 net.cpp:150] Setting up relu6
I0121 16:29:06.956893  2723 net.cpp:157] Top shape: 1 4096 (4096)
I0121 16:29:06.956899  2723 net.cpp:165] Memory required for data: 13630184
I0121 16:29:06.956904  2723 layer_factory.hpp:77] Creating layer drop6
I0121 16:29:06.956923  2723 net.cpp:100] Creating Layer drop6
I0121 16:29:06.956928  2723 net.cpp:434] drop6 <- fc6
I0121 16:29:06.956936  2723 net.cpp:395] drop6 -> fc6 (in-place)
I0121 16:29:06.956982  2723 net.cpp:150] Setting up drop6
I0121 16:29:06.956986  2723 net.cpp:157] Top shape: 1 4096 (4096)
I0121 16:29:06.956990  2723 net.cpp:165] Memory required for data: 13646568
I0121 16:29:06.956995  2723 layer_factory.hpp:77] Creating layer fc7-new
I0121 16:29:06.957007  2723 net.cpp:100] Creating Layer fc7-new
I0121 16:29:06.957010  2723 net.cpp:434] fc7-new <- fc6
I0121 16:29:06.957017  2723 net.cpp:408] fc7-new -> fc7
I0121 16:29:07.159427  2723 net.cpp:150] Setting up fc7-new
I0121 16:29:07.159515  2723 net.cpp:157] Top shape: 1 4096 (4096)
I0121 16:29:07.159524  2723 net.cpp:165] Memory required for data: 13662952
I0121 16:29:07.159538  2723 layer_factory.hpp:77] Creating layer relu7
I0121 16:29:07.159549  2723 net.cpp:100] Creating Layer relu7
I0121 16:29:07.159555  2723 net.cpp:434] relu7 <- fc7
I0121 16:29:07.159564  2723 net.cpp:395] relu7 -> fc7 (in-place)
I0121 16:29:07.160580  2723 net.cpp:150] Setting up relu7
I0121 16:29:07.160598  2723 net.cpp:157] Top shape: 1 4096 (4096)
I0121 16:29:07.160604  2723 net.cpp:165] Memory required for data: 13679336
I0121 16:29:07.160609  2723 layer_factory.hpp:77] Creating layer drop7
I0121 16:29:07.160619  2723 net.cpp:100] Creating Layer drop7
I0121 16:29:07.160624  2723 net.cpp:434] drop7 <- fc7
I0121 16:29:07.160631  2723 net.cpp:395] drop7 -> fc7 (in-place)
I0121 16:29:07.160665  2723 net.cpp:150] Setting up drop7
I0121 16:29:07.160670  2723 net.cpp:157] Top shape: 1 4096 (4096)
I0121 16:29:07.160673  2723 net.cpp:165] Memory required for data: 13695720
I0121 16:29:07.160676  2723 layer_factory.hpp:77] Creating layer fc7-newb
I0121 16:29:07.160691  2723 net.cpp:100] Creating Layer fc7-newb
I0121 16:29:07.160694  2723 net.cpp:434] fc7-newb <- fc7
I0121 16:29:07.160702  2723 net.cpp:408] fc7-newb -> fc7b
I0121 16:29:07.362660  2723 net.cpp:150] Setting up fc7-newb
I0121 16:29:07.362692  2723 net.cpp:157] Top shape: 1 4096 (4096)
I0121 16:29:07.362699  2723 net.cpp:165] Memory required for data: 13712104
I0121 16:29:07.362711  2723 layer_factory.hpp:77] Creating layer relu7b
I0121 16:29:07.362723  2723 net.cpp:100] Creating Layer relu7b
I0121 16:29:07.362728  2723 net.cpp:434] relu7b <- fc7b
I0121 16:29:07.362735  2723 net.cpp:395] relu7b -> fc7b (in-place)
I0121 16:29:07.364394  2723 net.cpp:150] Setting up relu7b
I0121 16:29:07.364410  2723 net.cpp:157] Top shape: 1 4096 (4096)
I0121 16:29:07.364416  2723 net.cpp:165] Memory required for data: 13728488
I0121 16:29:07.364421  2723 layer_factory.hpp:77] Creating layer drop7b
I0121 16:29:07.364429  2723 net.cpp:100] Creating Layer drop7b
I0121 16:29:07.364434  2723 net.cpp:434] drop7b <- fc7b
I0121 16:29:07.364439  2723 net.cpp:395] drop7b -> fc7b (in-place)
I0121 16:29:07.364473  2723 net.cpp:150] Setting up drop7b
I0121 16:29:07.364478  2723 net.cpp:157] Top shape: 1 4096 (4096)
I0121 16:29:07.364481  2723 net.cpp:165] Memory required for data: 13744872
I0121 16:29:07.364552  2723 layer_factory.hpp:77] Creating layer fc8-shapes
I0121 16:29:07.364568  2723 net.cpp:100] Creating Layer fc8-shapes
I0121 16:29:07.364591  2723 net.cpp:434] fc8-shapes <- fc7b
I0121 16:29:07.364598  2723 net.cpp:408] fc8-shapes -> fc8
I0121 16:29:07.364873  2723 net.cpp:150] Setting up fc8-shapes
I0121 16:29:07.364878  2723 net.cpp:157] Top shape: 1 4 (4)
I0121 16:29:07.364882  2723 net.cpp:165] Memory required for data: 13744888
I0121 16:29:07.364889  2723 layer_factory.hpp:77] Creating layer neg
I0121 16:29:07.364902  2723 net.cpp:100] Creating Layer neg
I0121 16:29:07.364907  2723 net.cpp:434] neg <- bbox
I0121 16:29:07.364912  2723 net.cpp:408] neg -> bbox_neg
I0121 16:29:07.364934  2723 net.cpp:150] Setting up neg
I0121 16:29:07.364938  2723 net.cpp:157] Top shape: 1 4 1 1 (4)
I0121 16:29:07.364943  2723 net.cpp:165] Memory required for data: 13744904
I0121 16:29:07.364945  2723 layer_factory.hpp:77] Creating layer flatten
I0121 16:29:07.364955  2723 net.cpp:100] Creating Layer flatten
I0121 16:29:07.364959  2723 net.cpp:434] flatten <- bbox_neg
I0121 16:29:07.364965  2723 net.cpp:408] flatten -> bbox_neg_flat
I0121 16:29:07.364986  2723 net.cpp:150] Setting up flatten
I0121 16:29:07.364990  2723 net.cpp:157] Top shape: 1 4 (4)
I0121 16:29:07.364993  2723 net.cpp:165] Memory required for data: 13744920
I0121 16:29:07.364997  2723 layer_factory.hpp:77] Creating layer subtract
I0121 16:29:07.365005  2723 net.cpp:100] Creating Layer subtract
I0121 16:29:07.365010  2723 net.cpp:434] subtract <- fc8
I0121 16:29:07.365015  2723 net.cpp:434] subtract <- bbox_neg_flat
I0121 16:29:07.365021  2723 net.cpp:408] subtract -> out_diff
I0121 16:29:07.365043  2723 net.cpp:150] Setting up subtract
I0121 16:29:07.365046  2723 net.cpp:157] Top shape: 1 4 (4)
I0121 16:29:07.365051  2723 net.cpp:165] Memory required for data: 13744936
I0121 16:29:07.365053  2723 layer_factory.hpp:77] Creating layer abssum
I0121 16:29:07.365061  2723 net.cpp:100] Creating Layer abssum
I0121 16:29:07.365064  2723 net.cpp:434] abssum <- out_diff
I0121 16:29:07.365069  2723 net.cpp:408] abssum -> loss
I0121 16:29:07.365094  2723 net.cpp:150] Setting up abssum
I0121 16:29:07.365097  2723 net.cpp:157] Top shape: (1)
…
